"backend: tensorflow\nclass_name: Sequential\nconfig:\n  layers:\n  - class_name:\
  \ InputLayer\n    config:\n      batch_input_shape: !!python/tuple\n      - null\n\
  \      - 32\n      - 32\n      - 3\n      dtype: float32\n      name: conv2d_input\n\
  \      ragged: false\n      sparse: false\n  - class_name: Conv2D\n    config:\n\
  \      activation: relu\n      activity_regularizer: null\n      batch_input_shape:\
  \ !!python/tuple\n      - null\n      - 32\n      - 32\n      - 3\n      bias_constraint:\
  \ null\n      bias_initializer:\n        class_name: Zeros\n        config: {}\n\
  \      bias_regularizer: null\n      data_format: channels_last\n      dilation_rate:\
  \ &id001 !!python/tuple\n      - 1\n      - 1\n      dtype: float32\n      filters:\
  \ 32\n      groups: 1\n      kernel_constraint: null\n      kernel_initializer:\n\
  \        class_name: GlorotUniform\n        config:\n          seed: null\n    \
  \  kernel_regularizer: null\n      kernel_size: &id002 !!python/tuple\n      - 3\n\
  \      - 3\n      name: conv2d\n      padding: same\n      strides: *id001\n   \
  \   trainable: true\n      use_bias: true\n  - class_name: Conv2D\n    config:\n\
  \      activation: relu\n      activity_regularizer: null\n      bias_constraint:\
  \ null\n      bias_initializer:\n        class_name: Zeros\n        config: {}\n\
  \      bias_regularizer: null\n      data_format: channels_last\n      dilation_rate:\
  \ *id001\n      dtype: float32\n      filters: 64\n      groups: 1\n      kernel_constraint:\
  \ null\n      kernel_initializer:\n        class_name: GlorotUniform\n        config:\n\
  \          seed: null\n      kernel_regularizer: null\n      kernel_size: *id002\n\
  \      name: conv2d_1\n      padding: same\n      strides: *id001\n      trainable:\
  \ true\n      use_bias: true\n  - class_name: MaxPooling2D\n    config:\n      data_format:\
  \ channels_last\n      dtype: float32\n      name: max_pooling2d\n      padding:\
  \ valid\n      pool_size: &id003 !!python/tuple\n      - 2\n      - 2\n      strides:\
  \ *id003\n      trainable: true\n  - class_name: Conv2D\n    config:\n      activation:\
  \ relu\n      activity_regularizer: null\n      bias_constraint: null\n      bias_initializer:\n\
  \        class_name: Zeros\n        config: {}\n      bias_regularizer: null\n \
  \     data_format: channels_last\n      dilation_rate: *id001\n      dtype: float32\n\
  \      filters: 128\n      groups: 1\n      kernel_constraint: null\n      kernel_initializer:\n\
  \        class_name: GlorotUniform\n        config:\n          seed: null\n    \
  \  kernel_regularizer: null\n      kernel_size: *id002\n      name: conv2d_2\n \
  \     padding: same\n      strides: *id001\n      trainable: true\n      use_bias:\
  \ true\n  - class_name: Conv2D\n    config:\n      activation: relu\n      activity_regularizer:\
  \ null\n      bias_constraint: null\n      bias_initializer:\n        class_name:\
  \ Zeros\n        config: {}\n      bias_regularizer: null\n      data_format: channels_last\n\
  \      dilation_rate: *id001\n      dtype: float32\n      filters: 128\n      groups:\
  \ 1\n      kernel_constraint: null\n      kernel_initializer:\n        class_name:\
  \ GlorotUniform\n        config:\n          seed: null\n      kernel_regularizer:\
  \ null\n      kernel_size: *id002\n      name: conv2d_3\n      padding: same\n \
  \     strides: *id001\n      trainable: true\n      use_bias: true\n  - class_name:\
  \ MaxPooling2D\n    config:\n      data_format: channels_last\n      dtype: float32\n\
  \      name: max_pooling2d_1\n      padding: valid\n      pool_size: *id003\n  \
  \    strides: *id003\n      trainable: true\n  - class_name: Conv2D\n    config:\n\
  \      activation: relu\n      activity_regularizer: null\n      bias_constraint:\
  \ null\n      bias_initializer:\n        class_name: Zeros\n        config: {}\n\
  \      bias_regularizer: null\n      data_format: channels_last\n      dilation_rate:\
  \ *id001\n      dtype: float32\n      filters: 256\n      groups: 1\n      kernel_constraint:\
  \ null\n      kernel_initializer:\n        class_name: GlorotUniform\n        config:\n\
  \          seed: null\n      kernel_regularizer: null\n      kernel_size: *id002\n\
  \      name: conv2d_4\n      padding: same\n      strides: *id001\n      trainable:\
  \ true\n      use_bias: true\n  - class_name: Conv2D\n    config:\n      activation:\
  \ relu\n      activity_regularizer: null\n      bias_constraint: null\n      bias_initializer:\n\
  \        class_name: Zeros\n        config: {}\n      bias_regularizer: null\n \
  \     data_format: channels_last\n      dilation_rate: *id001\n      dtype: float32\n\
  \      filters: 256\n      groups: 1\n      kernel_constraint: null\n      kernel_initializer:\n\
  \        class_name: GlorotUniform\n        config:\n          seed: null\n    \
  \  kernel_regularizer: null\n      kernel_size: *id002\n      name: conv2d_5\n \
  \     padding: same\n      strides: *id001\n      trainable: true\n      use_bias:\
  \ true\n  - class_name: Conv2D\n    config:\n      activation: relu\n      activity_regularizer:\
  \ null\n      bias_constraint: null\n      bias_initializer:\n        class_name:\
  \ Zeros\n        config: {}\n      bias_regularizer: null\n      data_format: channels_last\n\
  \      dilation_rate: *id001\n      dtype: float32\n      filters: 256\n      groups:\
  \ 1\n      kernel_constraint: null\n      kernel_initializer:\n        class_name:\
  \ GlorotUniform\n        config:\n          seed: null\n      kernel_regularizer:\
  \ null\n      kernel_size: *id002\n      name: conv2d_6\n      padding: same\n \
  \     strides: *id001\n      trainable: true\n      use_bias: true\n  - class_name:\
  \ MaxPooling2D\n    config:\n      data_format: channels_last\n      dtype: float32\n\
  \      name: max_pooling2d_2\n      padding: valid\n      pool_size: *id003\n  \
  \    strides: *id003\n      trainable: true\n  - class_name: Flatten\n    config:\n\
  \      data_format: channels_last\n      dtype: float32\n      name: flatten\n \
  \     trainable: true\n  - class_name: Dense\n    config:\n      activation: relu\n\
  \      activity_regularizer: null\n      bias_constraint: null\n      bias_initializer:\n\
  \        class_name: Zeros\n        config: {}\n      bias_regularizer: null\n \
  \     dtype: float32\n      kernel_constraint: null\n      kernel_initializer:\n\
  \        class_name: GlorotUniform\n        config:\n          seed: null\n    \
  \  kernel_regularizer: null\n      name: dense\n      trainable: true\n      units:\
  \ 500\n      use_bias: true\n  - class_name: Dense\n    config:\n      activation:\
  \ softmax\n      activity_regularizer: null\n      bias_constraint: null\n     \
  \ bias_initializer:\n        class_name: Zeros\n        config: {}\n      bias_regularizer:\
  \ null\n      dtype: float32\n      kernel_constraint: null\n      kernel_initializer:\n\
  \        class_name: GlorotUniform\n        config:\n          seed: null\n    \
  \  kernel_regularizer: null\n      name: dense_1\n      trainable: true\n      units:\
  \ 10\n      use_bias: true\n  name: sequential\nkeras_version: 2.4.0\n"
